…
y_train min/max after scaling: 0.0 1.0

Creating model...
Model: "model"
__________________________________________________________________________________________________
Layer (type)                    Output Shape         Param #     Connected to                     
==================================================================================================
input_1 (InputLayer)            [(None, 24, 40)]     0                                            
__________________________________________________________________________________________________
lstm (LSTM)                     (None, 24, 128)      86528       input_1[0][0]                    
__________________________________________________________________________________________________
batch_normalization (BatchNorma (None, 24, 128)      512         lstm[0][0]                       
__________________________________________________________________________________________________
dropout (Dropout)               (None, 24, 128)      0           batch_normalization[0][0]        
__________________________________________________________________________________________________
lstm_1 (LSTM)                   (None, 24, 128)      131584      dropout[0][0]                    
__________________________________________________________________________________________________
batch_normalization_1 (BatchNor (None, 24, 128)      512         lstm_1[0][0]                     
__________________________________________________________________________________________________
dropout_1 (Dropout)             (None, 24, 128)      0           batch_normalization_1[0][0]      
__________________________________________________________________________________________________
add (Add)                       (None, 24, 128)      0           dropout[0][0]                    
                                                                 dropout_1[0][0]                  
__________________________________________________________________________________________________
lstm_2 (LSTM)                   (None, 24, 64)       49408       add[0][0]                        
__________________________________________________________________________________________________
batch_normalization_2 (BatchNor (None, 24, 64)       256         lstm_2[0][0]                     
__________________________________________________________________________________________________
dropout_2 (Dropout)             (None, 24, 64)       0           batch_normalization_2[0][0]      
__________________________________________________________________________________________________
dense (Dense)                   (None, 24, 1)        65          dropout_2[0][0]                  
__________________________________________________________________________________________________
flatten (Flatten)               (None, 24)           0           dense[0][0]                      
__________________________________________________________________________________________________
activation (Activation)         (None, 24)           0           flatten[0][0]                    
__________________________________________________________________________________________________
repeat_vector (RepeatVector)    (None, 64, 24)       0           activation[0][0]                 
__________________________________________________________________________________________________
permute (Permute)               (None, 24, 64)       0           repeat_vector[0][0]              
__________________________________________________________________________________________________
multiply (Multiply)             (None, 24, 64)       0           dropout_2[0][0]                  
                                                                 permute[0][0]                    
__________________________________________________________________________________________________
lambda (Lambda)                 (None, 64)           0           multiply[0][0]                   
__________________________________________________________________________________________________
dense_1 (Dense)                 (None, 32)           2080        lambda[0][0]                     
__________________________________________________________________________________________________
batch_normalization_3 (BatchNor (None, 32)           128         dense_1[0][0]                    
__________________________________________________________________________________________________
dropout_3 (Dropout)             (None, 32)           0           batch_normalization_3[0][0]      
__________________________________________________________________________________________________
dense_2 (Dense)                 (None, 32)           1056        dropout_3[0][0]                  
__________________________________________________________________________________________________
batch_normalization_4 (BatchNor (None, 32)           128         dense_2[0][0]                    
__________________________________________________________________________________________________
dropout_4 (Dropout)             (None, 32)           0           batch_normalization_4[0][0]      
__________________________________________________________________________________________________
add_1 (Add)                     (None, 32)           0           dropout_3[0][0]                  
                                                                 dropout_4[0][0]                  
__________________________________________________________________________________________________
dense_3 (Dense)                 (None, 1)            33          add_1[0][0]                      
==================================================================================================
Total params: 272,290
Trainable params: 271,522
Non-trainable params: 768
__________________________________________________________________________________________________

Training model...

Training data statistics:
X_train shape: (45300, 24, 40)
y_train shape: (45300,)
…

Creating sequences for 3935 samples
Created 1873 valid sequences

Final sequence shapes:
X_train: (9009, 24, 35)
y_train: (9009,)
X_val: (2029, 24, 35)
y_val: (2029,)
X_test: (1873, 24, 35)
y_test: (1873,)

Creating model...
Model: "model"
_________________________________________________________________
Layer (type)                 Output Shape              Param #   
=================================================================
input_1 (InputLayer)         [(None, 24, 35)]          0         
_________________________________________________________________
lstm (LSTM)                  (None, 24, 128)           83968     
_________________________________________________________________
batch_normalization (BatchNo (None, 24, 128)           512       
_________________________________________________________________
dropout (Dropout)            (None, 24, 128)           0         
_________________________________________________________________
lstm_1 (LSTM)                (None, 24, 64)            49408     
_________________________________________________________________
batch_normalization_1 (Batch (None, 24, 64)            256       
_________________________________________________________________
dropout_1 (Dropout)          (None, 24, 64)            0         
_________________________________________________________________
lstm_2 (LSTM)                (None, 32)                12416     
_________________________________________________________________
batch_normalization_2 (Batch (None, 32)                128       
_________________________________________________________________
dropout_2 (Dropout)          (None, 32)                0         
_________________________________________________________________
dense (Dense)                (None, 32)                1056      
_________________________________________________________________
batch_normalization_3 (Batch (None, 32)                128       
_________________________________________________________________
dropout_3 (Dropout)          (None, 32)                0         
_________________________________________________________________
dense_1 (Dense)              (None, 1)                 33        
=================================================================
Total params: 147,905
Trainable params: 147,393
Non-trainable params: 512
_________________________________________________________________

Data statistics for Jaisalmer:
X_train shape: (9009, 24, 35)
y_train shape: (9009,)
X_train range: [-1.0000, 1051.0000]
y_train range: [0.0010, 1.0000]
y_val range: [0.0010, 0.9667]
y_test range: [0.0019, 0.9144]
…
