…
Feature columns for LSTM: ['GHI_lag_1', 'GHI_lag_2', 'GHI_lag_3', 'GHI_lag_4', 'GHI_lag_5', 'GHI_lag_6', 'GHI_lag_7', 'GHI_lag_8', 'GHI_lag_9', 'GHI_lag_10', 'GHI_lag_11', 'GHI_lag_12', 'GHI_lag_13', 'GHI_lag_14', 'GHI_lag_15', 'GHI_lag_16', 'GHI_lag_17', 'GHI_lag_18', 'GHI_lag_19', 'GHI_lag_20', 'GHI_lag_21', 'GHI_lag_22', 'GHI_lag_23', 'GHI_lag_24', 'location_Jaisalmer', 'location_Jodhpur', 'location_New Delhi', 'location_Shimla', 'location_Srinagar']

Final shapes:
X_train: (87576, 1, 29), y_train: (87576,)
X_val: (21888, 1, 29), y_val: (21888,)
X_test: (21888, 1, 29), y_test: (21888,)

Creating model...
Model: "sequential"
_________________________________________________________________
 Layer (type)                Output Shape              Param #   
=================================================================
 lstm (LSTM)                 (None, 1, 128)            80896     
                                                                 
 dropout (Dropout)           (None, 1, 128)            0         
                                                                 
 lstm_1 (LSTM)               (None, 1, 64)             49408     
                                                                 
 dropout_1 (Dropout)         (None, 1, 64)             0         
                                                                 
 lstm_2 (LSTM)               (None, 32)                12416     
                                                                 
 dropout_2 (Dropout)         (None, 32)                0         
                                                                 
 dense (Dense)               (None, 32)                1056      
                                                                 
 dense_1 (Dense)             (None, 16)                528       
                                                                 
 dense_2 (Dense)             (None, 1)                 17        
                                                                 
=================================================================
Total params: 144,321
Trainable params: 144,321
Non-trainable params: 0
_________________________________________________________________

Training model...
Epoch 1/20
   1/2737 [..............................] - ETA: 2:32:20 - loss: 0.2179 - mae: 0.3073 - m
…
Feature columns for LSTM: ['GHI_lag_1', 'GHI_lag_2', 'GHI_lag_3', 'GHI_lag_4', 'GHI_lag_5', 'GHI_lag_6', 'GHI_lag_7', 'GHI_lag_8', 'GHI_lag_9', 'GHI_lag_10', 'GHI_lag_11', 'GHI_lag_12', 'GHI_lag_13', 'GHI_lag_14', 'GHI_lag_15', 'GHI_lag_16', 'GHI_lag_17', 'GHI_lag_18', 'GHI_lag_19', 'GHI_lag_20', 'GHI_lag_21', 'GHI_lag_22', 'GHI_lag_23', 'GHI_lag_24', 'Temperature_lag_24', 'location_Jaisalmer', 'location_Jodhpur', 'location_New Delhi', 'location_Shimla', 'location_Srinagar']

Final shapes:
X_train: (87576, 1, 30), y_train: (87576,)
X_val: (21888, 1, 30), y_val: (21888,)
X_test: (21888, 1, 30), y_test: (21888,)

Creating model...
Model: "sequential"
_________________________________________________________________
 Layer (type)                Output Shape              Param #   
=================================================================
 lstm (LSTM)                 (None, 1, 128)            81408     
                                                                 
 dropout (Dropout)           (None, 1, 128)            0         
                                                                 
 lstm_1 (LSTM)               (None, 1, 64)             49408     
                                                                 
 dropout_1 (Dropout)         (None, 1, 64)             0         
                                                                 
 lstm_2 (LSTM)               (None, 32)                12416     
                                                                 
 dropout_2 (Dropout)         (None, 32)                0         
                                                                 
 dense (Dense)               (None, 32)                1056      
                                                                 
 dense_1 (Dense)             (None, 16)                528       
                                                                 
 dense_2 (Dense)             (None, 1)                 17        
                                                                 
=================================================================
Total params: 144,833
Trainable params: 144,833
Non-trainable params: 0
_________________________________________________________________

Training model...
Epoch 1/20
   1/2737 [..............................] - ETA: 2:43:07 - loss: 0.2191 - mae: 0.3088 - m
…
