…
Final sequence shapes:
X: (9427, 24, 40)
y: (9427,)

Sequence distribution by location:
Jaisalmer: 9427 sequences
Jodhpur: 0 sequences
New Delhi: 0 sequences
Shimla: 0 sequences
Srinagar: 0 sequences

Final sequence shapes:
X_train: (45350, 24, 40)
y_train: (45350,)
X_val: (10405, 24, 40)
y_val: (10405,)
X_test: (9427, 24, 40)
y_test: (9427,)

Creating model...
Model: "sequential"
_________________________________________________________________
Layer (type)                 Output Shape              Param #   
=================================================================
lstm (LSTM)                  (None, 24, 64)            26880     
_________________________________________________________________
dropout (Dropout)            (None, 24, 64)            0         
_________________________________________________________________
lstm_1 (LSTM)                (None, 32)                12416     
_________________________________________________________________
dropout_1 (Dropout)          (None, 32)                0         
_________________________________________________________________
dense (Dense)                (None, 12)                396       
_________________________________________________________________
dense_1 (Dense)              (None, 1)                 13        
=================================================================
Total params: 39,705
Trainable params: 39,705
Non-trainable params: 0
_________________________________________________________________

Training model...
Epoch 1/50
   1/1418 [..............................] - ETA: 1:58:14 - loss: 0.9956 - mae: 0.8472
…
