…
X: (9374, 24, 12)
y: (9374,)

Sequence distribution by location:
Jaisalmer: 1870 sequences
Jodhpur: 1878 sequences
New Delhi: 1880 sequences
Shimla: 1873 sequences
Srinagar: 1873 sequences

Final sequence shapes:
X_train: (45297, 24, 12)
y_train: (45297,)
X_val: (10362, 24, 12)
y_val: (10362,)
X_test: (9374, 24, 12)
y_test: (9374,)

Creating model...
Model: "sequential"
_________________________________________________________________
Layer (type)                 Output Shape              Param #   
=================================================================
lstm (LSTM)                  (None, 24, 64)            19712     
_________________________________________________________________
dropout (Dropout)            (None, 24, 64)            0         
_________________________________________________________________
lstm_1 (LSTM)                (None, 32)                12416     
_________________________________________________________________
dropout_1 (Dropout)          (None, 32)                0         
_________________________________________________________________
dense (Dense)                (None, 16)                528       
_________________________________________________________________
dense_1 (Dense)              (None, 1)                 17        
=================================================================
Total params: 32,673
Trainable params: 32,673
Non-trainable params: 0
_________________________________________________________________

Training model...
Epoch 1/50
   1/1416 [..............................] - ETA: 1:45:48 - loss: 1.0719 - mae: 0.9542
…
